Layer (type)                 Output Shape              Param #   
=================================================================
attention_logbank_input (Inp (None, 1, 120, 120)       0         
_________________________________________________________________
gaussian_noise_1 (GaussianNo (None, 1, 120, 120)       0         
_________________________________________________________________
conv2d_1 (Conv2D)            (None, 16, 120, 120)      160       
_________________________________________________________________
max_pooling2d_1 (MaxPooling2 (None, 16, 40, 120)       0         
_________________________________________________________________
batch_normalization_1 (Batch (None, 16, 40, 120)       480       
_________________________________________________________________
conv2d_2 (Conv2D)            (None, 32, 40, 120)       4640      
_________________________________________________________________
max_pooling2d_2 (MaxPooling2 (None, 32, 40, 40)        0         
_________________________________________________________________
batch_normalization_2 (Batch (None, 32, 40, 40)        160       
_________________________________________________________________
conv2d_3 (Conv2D)            (None, 64, 40, 40)        18496     
_________________________________________________________________
max_pooling2d_3 (MaxPooling2 (None, 64, 20, 20)        0         
_________________________________________________________________
batch_normalization_3 (Batch (None, 64, 20, 20)        80        
_________________________________________________________________
conv2d_4 (Conv2D)            (None, 32, 20, 20)        18464     
_________________________________________________________________
max_pooling2d_4 (MaxPooling2 (None, 32, 10, 10)        0         
_________________________________________________________________
batch_normalization_4 (Batch (None, 32, 10, 10)        40        
_________________________________________________________________
conv2d_5 (Conv2D)            (None, 32, 10, 10)        9248      
_________________________________________________________________
max_pooling2d_5 (MaxPooling2 (None, 32, 5, 5)          0         
_________________________________________________________________
batch_normalization_5 (Batch (None, 32, 5, 5)          20        
_________________________________________________________________
reshape_1 (Reshape)          (None, 32, 25)            0         
_________________________________________________________________
dropout_1 (Dropout)          (None, 32, 25)            0         
_________________________________________________________________
cu_dnngru_1 (CuDNNGRU)       (None, 32, 34)            6222      
_________________________________________________________________
attention (Attention)        (None, 34)                66        
_________________________________________________________________
dropout_2 (Dropout)          (None, 34)                0         
_________________________________________________________________
attention_logbank_output (De (None, 10)                350       
=================================================================
Total params: 58,426
Trainable params: 58,036
Non-trainable params: 390
_________________________________________________________________